modules/exit_ML/attention_mil_model.pt (torch, 228814 bytes, 10 tensors)

instance_encoder.0.weight f4 [256, 18]
0	0xbe9dae4f	-0.3079705
1	0xbc0f790c	-0.008756887
2	0xbdef8b78	-0.116965234
3	0xbd83755a	-0.064188674
4	0xbe803fcf	-0.25048682
5	0x3e32ea2e	0.17472145
6	0xbe1695bb	-0.14705555
7	0xbe8096c4	-0.25115025
8	0xbe2e837d	-0.17042346
9	0xbd6ae208	-0.057344466
10	0x3c94e54c	0.018175744
11	0x3e5d370d	0.21603031
12	0x3dbf4ab3	0.093404196
13	0xbdc09ba5	-0.09404687
14	0x3d514457	0.051090565
15	0xbe2145b7	-0.1574925
16	0x3e735159	0.237615
17	0xbd78bae3	-0.060725104
18	0x3e669fd8	0.22521913
19	0x3e00257d	0.125143
20	0x3e2caa7c	0.1686191
21	0xbac94ea2	-0.0015358517
22	0x3e3f623d	0.18689819
23	0x3dde2b76	0.10848133
24	0xbd8863ed	-0.06659684
25	0xbdca7d97	-0.098872356
26	0xbe195ce9	-0.14976849
27	0x3d2336b7	0.039847102
28	0xbd7b9bb3	-0.061427783
29	0x3e3b49ec	0.18289918
30	0xbdfa313c	-0.12216422
31	0xbd600406	-0.054691337
32	0x3ded7f4b	0.11596545
33	0xbdfd42f7	-0.12366288
34	0x3d368bd5	0.044566948
35	0x3df23e21	0.118282564
36	0x3d13c96d	0.036080766
37	0xbde7c56b	-0.11316951
38	0xbe1b0c0a	-0.15141311
39	0xbe155aba	-0.1458539
40	0xbd8ae026	-0.06781034
41	0xbe8f96c8	-0.28044724
42	0x3e447ea6	0.19188938
43	0x3e6fb0c3	0.23407273
44	0xbdf055f3	-0.117351435
45	0xbe000f42	-0.1250582
46	0x3dc241e1	0.09485222
47	0xbe189642	-0.14901069
48	0xbe33a211	-0.17542292
49	0xbe4913d1	-0.19636466
50	0xbe59eec8	-0.21282494
51	0xbe0ef2a9	-0.13959755
52	0xbd675fa5	-0.056487698
53	0x3c5b1c8a	0.013373503
54	0xbde90409	-0.11377723
55	0x3e632c00	0.22184753
56	0x3dc95a83	0.09831717
57	0x3df222b3	0.118230246
58	0xbe67da73	-0.22641926
59	0x3e34de2a	0.17662874
60	0x3dca9852	0.09892334
61	0x3db1dfa1	0.08685232
62	0xbc295fb8	-0.010337763
63	0xbd377c6b	-0.04479639
64	0xbe75ff59	-0.24023189
65	0xbe5c8308	-0.2153436
66	0x3dce59b8	0.10075706
67	0xbd27d421	-0.040973786
68	0x3e71a02c	0.23596257
69	0x3d293595	0.041310865
70	0xbe510dbd	-0.20415397
71	0x3e143060	0.14471579
72	0x3e0acf05	0.13555534
73	0x3e27f5c7	0.1640235
74	0x3d8dcfb1	0.069243796
75	0xbdd4b673	-0.10386362
76	0xbd0d9938	-0.03456995
77	0x3da4882a	0.08033784
78	0xbe945367	-0.2896988
79	0x3dea22a4	0.114323884
80	0xbdd27cba	-0.10277696
81	0xbe1c5dfd	-0.15270229
82	0xbe36ec20	-0.17863512
83	0xbe6c5c09	-0.23081984
84	0xbe5809e8	-0.21097529
85	0xbe5da191	-0.21643664
86	0xbe678bdb	-0.22611944
87	0x3d7ec176	0.062196217
88	0x3e9126a5	0.28349796
89	0xbdce062d	-0.10059772
90	0x3de3259c	0.11091158
91	0xbd699f30	-0.05703658
92	0x3cc53ec4	0.02407778
93	0xbe5f57f3	-0.21810894
94	0xbe377127	-0.17914258
95	0x3e2d58e7	0.16928445
96	0x3dc04817	0.0938875
97	0x3b907d0f	0.0044094394
98	0xbe1eea89	-0.15519156
99	0xbbe8b404	-0.0071015377
100	0xbe0528e6	-0.13003883
101	0x3e751793	0.23934774
102	0xbe3977f3	-0.18112163
103	0x3e3aee09	0.18254866
104	0xbe52747b	-0.20552246
105	0x3c81f9fb	0.01586627
106	0x3c3bf74b	0.011472533
107	0xbcf50f95	-0.029914657
108	0xbe52b958	-0.20578516
109	0xbe15378f	-0.14571975
110	0x3de5f82a	0.11228974
111	0x3db69374	0.08914843
112	0xbe33c437	-0.17555319
113	0x3e500c01	0.20317079
114	0xbe3985d9	-0.18117465
115	0x3dcbc827	0.099502854
116	0x3e5ef208	0.21772015
117	0xbdb3c2c5	-0.08777384
118	0x3d883e56	0.06652515
119	0xbd5bc594	-0.053655222
120	0xbaaefa47	-0.0013349735
121	0xbe4ff90b	-0.20309846
122	0xbdafe08c	-0.08587751
123	0xbc465e57	-0.012107453
124	0x3e6fc831	0.2341621
125	0x3e44f87c	0.19235414
126	0xbc8c06c5	-0.017093072
127	0x3d59f39b	0.053210836
128	0xbda2d1e2	-0.07950188
129	0x3e142b46	0.14469633
130	0xbe304ac9	-0.17216028
131	0xbe196c9b	-0.14982836
132	0x3d83e3f1	0.06439961
133	0x3db47b33	0.08812561
134	0xbe4647c5	-0.19363315
135	0x3dde75e4	0.108623296
136	0x3e44456c	0.19167107
137	0x3d8f0ac3	0.069844745
138	0xbc747e69	-0.014922717
139	0xbd1628e1	-0.03666008
140	0xbd0b80c9	-0.034058366
141	0xbde23835	-0.11045877
142	0xbcd331b5	-0.025780538
143	0xbd1ced5a	-0.038312294
144	0xbde356fb	-0.111005746
145	0xbd7ca3fa	-0.061679818
146	0xbe74e87e	-0.23916814
147	0x3d8a9a48	0.06767708
148	0xbe09f171	-0.13471009
149	0xbc1d3711	-0.009595648
150	0xbe309add	-0.17246576
151	0x3e98cdfc	0.29844654
152	0x3ddb1b0b	0.106985174
153	0xbe5a74a9	-0.21333565
154	0x3e26fb54	0.16306812
155	0xbc3ddd30	-0.01158838
156	0xbe02b2fa	-0.12763587
157	0x3d24df7b	0.04025219
158	0xbda095d0	-0.078410745
159	0x3d163f43	0.036681425
160	0x3d94dc06	0.07268529
161	0xbdddce27	-0.10830336
162	0xbe3cbcaf	-0.18431352
163	0x3e057a4e	0.13034937
164	0x3e44fcc7	0.19237052
165	0x3d0dfb9c	0.03466378
166	0xbe18312e	-0.1486251
167	0xbe609027	-0.2192999
168	0xbe1acb3e	-0.15116593
169	0xbe7fce47	-0.24981032
170	0xbde98b28	-0.11403495
171	0x3e5303cc	0.20606917
172	0xbe69250d	-0.2276804
173	0x3a8b592b	0.0010631433
174	0x3e4435fc	0.19161218
175	0xbdd88867	-0.10572892
176	0x3de7cd61	0.1131847
177	0x3de43d8c	0.11144552
178	0xbe127437	-0.14302145
179	0x3e284a38	0.16434562
180	0xbe389187	-0.18024264
181	0xbcd9eb8c	-0.026601575
182	0x3e1109c1	0.14163877
183	0x3e40aeb8	0.1881665
184	0xbd57da49	-0.052698407
185	0xbe320f91	-0.1738875
186	0xbe6c0174	-0.2304743
187	0x3e8fbcec	0.28073823
188	0x3e46a293	0.19397955
189	0xbe43fc25	-0.19139154
190	0xbe32683f	-0.17422579
191	0x3e258ea2	0.16167691
192	0xbdf43138	-0.1192345
193	0xbe2da18f	-0.16956161
194	0x3df07785	0.117415465
195	0xbdfd7888	-0.12376505
196	0x3e549be0	0.20762587
197	0x3e4f58c0	0.20248699
198	0x3c3cfa47	0.01153428
199	0x3e2b48f5	0.1672705
200	0x3e0c72e6	0.13715705
201	0xbdf94b94	-0.121726185
202	0x3e5dce7d	0.216608
203	0xbd5be516	-0.05368527
204	0x3d11012d	0.035401512
205	0xbe0a78c8	-0.13522637
206	0x3dda8ad6	0.10671012
207	0x3e21649f	0.1576104
208	0xbe001138	-0.12506568
209	0x3d9d6694	0.07685581
210	0xbe307a8c	-0.17234248
211	0x3defd2c3	0.117101215
212	0xbd325c31	-0.04354495
213	0xbd3b23ab	-0.045688313
214	0x3d185d82	0.03719855
215	0x3d106493	0.035252165
216	0xbd125551	-0.035725895
217	0x3e389b02	0.18027881
218	0xbe3a62e9	-0.18201794
219	0x3e3c6625	0.1839834
220	0xbd5f9a34	-0.05459042
221	0x3e5ea839	0.2174386
222	0xbe8f71d5	-0.28016534
223	0x3e8f0468	0.2793305
224	0x3dbb71da	0.09152575
225	0xbe5ac157	-0.21362816
226	0x3e5a3aea	0.21311536
227	0x3d0591f0	0.03260988
228	0x3e5d70b1	0.2162502
229	0x3d786b73	0.060649347
230	0xbe46cb29	-0.19413437
231	0xbd426bdc	-0.047466144
232	0x3e5f6d74	0.21819097
233	0xbdc3c7c9	-0.0955959
234	0x3e69283b	0.22769253
235	0xbda85c09	-0.08220679
236	0x3de14012	0.109985486
237	0x3df50e42	0.1196561
238	0xbe006b7e	-0.12541005
239	0x3e4bc78b	0.19900338
240	0xbb946590	-0.0045287088
241	0x3e85facb	0.26167902
242	0xbdb3dd7e	-0.08782481
243	0xbd4d93de	-0.050189845
244	0x3c596512	0.013268726
245	0xbe37106e	-0.17877361
246	0xbc342d65	-0.010997151
247	0x3e36acd8	0.17839372
248	0xbe36398b	-0.17795388
249	0x3e405d73	0.18785648
250	0x3d9c359c	0.07627413
251	0x3cb82d90	0.022482663
252	0xbe016344	-0.12635523
253	0x3dfd653e	0.12372826
254	0x3e30e980	0.17276573
255	0xbc37ed2d	-0.011225981

instance_encoder.0.bias f4 [256]
0	0x3e0d9a71	0.13828446
1	0x3c37e7a2	0.011224659
2	0x3d52ac68	0.05143395
3	0x3e445963	0.19174723
4	0xbe3b221b	-0.18274729
5	0x3e4c8ae4	0.19974858
6	0x3e13224c	0.14368552
7	0x3e818d90	0.25303316
8	0x3e5ec732	0.21755674
9	0xbd294185	-0.04132225
10	0x3dec1f10	0.11529362
11	0x3c4d40aa	0.012527624
12	0x3e3da526	0.1852003
13	0x3d9fa0a9	0.07794315
14	0x3db3d404	0.08780673
15	0xbcb360c8	-0.021896735
16	0x3e840ff1	0.25793412
17	0x3e47effb	0.19525139
18	0x3d647814	0.055778578
19	0xbd52d2d1	-0.05147058
20	0x3e44de0b	0.19225328
21	0xbe56deeb	-0.20983474
22	0x3e380d12	0.17973736
23	0xbd374d92	-0.04475171
24	0x3e558587	0.20851718
25	0xbde9edbe	-0.11422299
26	0xbd9c6cbe	-0.076379284
27	0x3de3289b	0.11091729
28	0xbe869783	-0.2628747
29	0x3d8128dd	0.06306622
30	0x3d5cf1ce	0.05394154
31	0x3d94bcd3	0.07262578
32	0x3da65b46	0.08122878
33	0xbb9f4c9b	-0.004861427
34	0x3d3ea80d	0.046546984
35	0x3e6b5287	0.229807
36	0xbd9b9f1b	-0.07598706
37	0x3d322100	0.043488503
38	0x3d62f488	0.055408984
39	0x3cd1e6db	0.025622776
40	0xbce85077	-0.028358681
41	0xbc69f9a3	-0.014280709
42	0xbde5b05b	-0.11215278
43	0xbd5fbd7c	-0.054624066
44	0x3e5ff194	0.21869498
45	0x3c425341	0.01186067
46	0x3e845c89	0.2585185
47	0xbdee1cb2	-0.11626567
48	0x3e1611f0	0.1465528
49	0x3e06f98f	0.13181137
50	0xbde36d98	-0.11104888
51	0xbdbe4361	-0.09290195
52	0x3dfe8494	0.12427631
53	0xbdb21197	-0.08694761
54	0xbdee40e5	-0.116334714
55	0x3cb061fa	0.021531094
56	0x3e73da8e	0.23813841
57	0x3c1516d3	0.00909968
58	0xbdcafc94	-0.09911457
59	0x3d5072e1	0.050890807
60	0x3e3e28bc	0.18570226
61	0x3d9178f3	0.07103147
62	0x3c46e39a	0.012139225
63	0x3d4becab	0.04978625
64	0x3dfc8b17	0.12331217
65	0x3e6e96e1	0.23299743
66	0x3de03a6a	0.109486416
67	0x3d8630d2	0.065522805
68	0xbd683b26	-0.056697033
69	0xbe22b242	-0.15888312
70	0x3e4a5cda	0.19761983
71	0x3dfb41e3	0.12268426
72	0x3e507efa	0.20360938
73	0x3dbc1b31	0.09184874
74	0x3dc90c72	0.09816827
75	0xbe5e13f5	-0.216873
76	0x3d0f3deb	0.03497116
77	0x3caba0f2	0.020950768
78	0xbe6ef6b6	-0.233363
79	0x3e0c4eb8	0.13701904
80	0xbd15a542	-0.036534555
81	0xbe506d2c	-0.20354146
82	0xbe51e6e2	-0.20498231
83	0x3ddec06f	0.108765475
84	0xbe432422	-0.19056752
85	0x3e07af83	0.13250546
86	0xbe0f5aad	-0.13999434
87	0x3df00040	0.11718798
88	0xbde4e183	-0.111758254
89	0xbdea9813	-0.11454787
90	0xbe4b6dde	-0.1986613
91	0x3deb4d79	0.11489386
92	0x3d72cb0c	0.05927567
93	0xbe00d837	-0.1258248
94	0xbdc92644	-0.09821752
95	0x3e206785	0.1566449
96	0xbd8628a5	-0.06550721
97	0x3de7f110	0.11325276
98	0xbcf1be18	-0.02950959
99	0x3db368cf	0.08760225
100	0x3e3b4808	0.18289196
101	0xbe18e382	-0.14930537
102	0x3d9d2fa9	0.07675106
103	0xbe39d02c	-0.18145818
104	0x3dc6a0ac	0.096986145
105	0xbe126ebd	-0.14300056
106	0xbe36b01e	-0.17840621
107	0x3e80216d	0.25025502
108	0x3e360d84	0.17778593
109	0xbe426b5c	-0.18986267
110	0x3e858a70	0.26082182
111	0x3dae1278	0.084996164
112	0x3e8b5380	0.27212143
113	0x3e86b085	0.2630655
114	0xbd0b45e4	-0.0340022
115	0xbe31f980	-0.17380333
116	0x3d90615a	0.07049818
117	0xbe150f64	-0.14556652
118	0xbe5c3783	-0.21505551
119	0xbca480b5	-0.020080904
120	0xbdb66679	-0.08906264
121	0x3e4a4f30	0.1975677
122	0x3e61dfe6	0.22058067
123	0x3e8404a9	0.25784805
124	0xbe2fd5ef	-0.17171453
125	0x3e2eb867	0.17062531
126	0x3dc96d91	0.09835351
127	0xbba056d5	-0.0048931637
128	0x3e08893c	0.13333601
129	0x3e0cf270	0.13764358
130	0x3cf725f3	0.030169463
131	0x3dab1840	0.08354235
132	0xbd9ae9ef	-0.075641505
133	0xbca6b58d	-0.020350242
134	0xbcfe7bb6	-0.03106485
135	0xbdb69c33	-0.089165114
136	0x3d8f1571	0.069865115
137	0x3dc8e281	0.09808827
138	0xbe11c990	-0.14237046
139	0x3dadef05	0.08492855
140	0x3e27a1d3	0.16370325
141	0xbd87c917	-0.06630152
142	0x3e08c85a	0.13357678
143	0x3e2cce41	0.16875555
144	0xbe26e27c	-0.16297334
145	0xbe5fed05	-0.2186776
146	0x3e25a00e	0.16174337
147	0x3dabeff7	0.08395379
148	0xbd75b834	-0.059990123
149	0x3e602a37	0.21891104
150	0xbdf5be67	-0.11999207
151	0x3e75ee63	0.24016719
152	0x3e35a40c	0.1773836
153	0xbd8da957	-0.06917065
154	0x3e8c4b2e	0.27401108
155	0x3d0d8c30	0.03455752
156	0xbe656cf1	-0.22404839
157	0x3e444a49	0.19168963
158	0x3e221416	0.15827975
159	0xbe4f05e7	-0.20217095
160	0x3e159881	0.14608957
161	0x3e1da360	0.15394354
162	0xbdc34e5f	-0.095364325
163	0xbe13c3c5	-0.14430149
164	0x3e81c7db	0.2534779
165	0xbdb51e96	-0.088437244
166	0x3e03c8d3	0.12869577
167	0xbd70834e	-0.058718972
168	0x3d356cc6	0.044293188
169	0x3a883835	0.0010392728
170	0xbdee3f43	-0.1163316
171	0x3e60cca7	0.21953069
172	0x3e4d3edd	0.20043512
173	0x3ddecfe5	0.108794965
174	0xbcc9419a	-0.024567414
175	0x3dd755c9	0.10514409
176	0xbe33b7f3	-0.1755064
177	0x3e76d33e	0.2410402
178	0xbe26779a	-0.16256562
179	0xbbf05ae1	-0.0073350524
180	0x3bef9130	0.007311009
181	0x3de76cc0	0.11300039
182	0x3ea6571e	0.3248834
183	0xbd7a378e	-0.061088137
184	0x3e18dcce	0.1492798
185	0xbda78ae4	-0.08180788
186	0x3c1fe5b7	0.009759358
187	0xbca4a6d2	-0.020099077
188	0x3e680475	0.2265795
189	0x3de55d7a	0.1119947
190	0x3d794e17	0.060865488
191	0xbe1cfe9a	-0.15331498
192	0x3e1d5413	0.15364103
193	0x3d8d25d8	0.06891984
194	0x3ca547f9	0.02017592
195	0x3e468fd3	0.19390802
196	0x3dd2bb25	0.10289601
197	0x3e0dbdac	0.13841885
198	0x3c9184ad	0.01776346
199	0xbc8a3b73	-0.01687405
200	0xbca9d21b	-0.020730069
201	0xbc2367cd	-0.0099734785
202	0x3e28c225	0.1648031
203	0x3ce5ddae	0.028059807
204	0x3c843e69	0.01614304
205	0xbdb12ee0	-0.08651519
206	0xbdffe54b	-0.12494906
207	0xbdec9210	-0.11551297
208	0x3e354c4d	0.17704888
209	0x3e548113	0.20752363
210	0xbd4cbbab	-0.04998366
211	0xbe3845fd	-0.17995448
212	0xbc021a09	-0.007940778
213	0xbda1a666	-0.07893066
214	0xbdf566a7	-0.1198247
215	0xbdf076e0	-0.117414236
216	0x3e336276	0.17518029
217	0xbe1ee21f	-0.15515946
218	0x3a72a560	0.000925621
219	0xbe4a178f	-0.1973555
220	0x3d697432	0.056995578
221	0xbe1f205d	-0.1553969
222	0x3d717887	0.058952834
223	0xbe8027a4	-0.25030243
224	0x3e8174fa	0.2528456
225	0x3d8199e0	0.063281775
226	0xbe5015db	-0.20320837
227	0x3c455666	0.012044525
228	0xbe48b00f	-0.19598411
229	0x3bb6dfc3	0.0055808737
230	0x3d2eba75	0.042658288
231	0xbdd3e5a1	-0.103465326
232	0x3da099a4	0.078418046
233	0xbe02221f	-0.12708329
234	0xbe80e4dd	-0.2517461
235	0xbe456f82	-0.19280818
236	0xbcbda411	-0.023149522
237	0xbe2f01c5	-0.17090519
238	0xbdffeb9a	-0.12496109
239	0xbdccf30b	-0.10007294
240	0xbe204169	-0.15649952
241	0xbc3106e6	-0.010804867
242	0x3d998bfe	0.074974045
243	0x3e3f163f	0.1866083
244	0x3dbfac63	0.09359052
245	0x3dc529f2	0.09627141
246	0xbc72e289	-0.014824518
247	0xbe1924c9	-0.14955439
248	0xbe2d77c5	-0.1694022
249	0x3e50ab8f	0.20377944
250	0x3e136d87	0.1439725
251	0xbdc8956f	-0.09794127
252	0x3cae4e8d	0.02127769
253	0xbe160323	-0.14649634
254	0xbd814c38	-0.06313366
255	0xbe30a7d5	-0.17251523

instance_encoder.3.weight f4 [128, 256]
0	0xbbd70c4a	-0.0065627443
1	0xbd0665e2	-0.032812007
2	0xbd1879a0	-0.037225366
3	0xbc9296d2	-0.017894182
4	0xbd7c3440	-0.061573267
5	0x3d22b897	0.03972682
6	0x3ce5f9b9	0.028073179
7	0x3cbb75dc	0.022883348
8	0xbd74f8e0	-0.05980766
9	0x3d9a488b	0.07533368
10	0xbce3a247	-0.02778734
11	0xbd81b5b8	-0.06333488
12	0xbd35b662	-0.044363387
13	0x3ce6d3c4	0.02817715
14	0xbd3dd792	-0.046348162
15	0x3b8bf155	0.0042707124
16	0x3d1fa2e3	0.0389737
17	0x3d898bed	0.06716142
18	0xbd967cd2	-0.07348026
19	0xbc89405e	-0.016754325
20	0xbd0ba6b2	-0.03409452
21	0xbd8bfd24	-0.06835392
22	0xbd024a68	-0.03180924
23	0xbd168bcd	-0.03675442
24	0xbcebc087	-0.028778328
25	0x3d82dc2c	0.06389651
26	0xbd0583ad	-0.03259628
27	0x3d19911c	0.037491903
28	0xbb94adaa	-0.004537304
29	0xbd9a2fa1	-0.07528616
30	0xbd523304	-0.051318184
31	0xbc34b20f	-0.011028781
32	0x3d4629f2	0.048379846
33	0x3d227e80	0.03967142
34	0x3d2c1664	0.04201354
35	0xbcd05dce	-0.025435355
36	0x3cda1ae2	0.026624147
37	0x3cef7f24	0.02923543
38	0x3d133ab0	0.03594464
39	0xbceefe6d	-0.029174054
40	0x3d10cdbe	0.03535246
41	0xbd48bce3	-0.04900826
42	0xbd8aa12a	-0.06769021
43	0xbcba1286	-0.02271391
44	0xbc51a559	-0.01279577
45	0x3d96ff01	0.07372857
46	0xbd8c550f	-0.06852161
47	0xbc2954c7	-0.010335154
48	0xbd66817f	-0.05627584
49	0xbbfa9779	-0.0076474515
50	0xbd10ff77	-0.03539988
51	0xbd1007eb	-0.0351638
52	0xbd1bfea3	-0.038084637
53	0xbb96023e	-0.004577904
54	0xbcb624d5	-0.02223436
55	0x3cb805af	0.022463648
56	0x3cd7421c	0.02627664
57	0x3d8203d5	0.06348387
58	0xbce21092	-0.027595792
59	0x3d9515ca	0.072795466
60	0x3c4079d3	0.011747795
61	0xbd31b73b	-0.043387633
62	0x3d87d341	0.0663209
63	0xbc29a03a	-0.010353142
64	0x3bdca186	0.0067331223
65	0x3c60f74d	0.013730836
66	0x3d85c2a3	0.06531265
67	0xbd4433fa	-0.04790113
68	0xbd1b43d7	-0.037906494
69	0xbd40ce62	-0.047071822
70	0x3d6f4bb0	0.05842179
71	0xbc24d17e	-0.010059712
72	0x3c54b0ca	0.012981603
73	0x3c70d125	0.014698301
74	0x3d76d5cd	0.06026249
75	0x3d9793e8	0.07401258
76	0x3d9c981e	0.076462016
77	0x3d4ca6b4	0.049963668
78	0x3d9f11f8	0.07767099
79	0x3d04530e	0.03230577
80	0xbc10f84d	-0.008848262
81	0x3d31095d	0.04322182
82	0x3dc9a5d8	0.09846085
83	0x3cce9bf3	0.025220847
84	0x3d61ee3b	0.055158835
85	0xbb71c0f4	-0.003688869
86	0xbd8b829f	-0.06812023
87	0x3ced4bf9	0.02896689
88	0x3da38e13	0.07986083
89	0x3d471bf5	0.048610646
90	0x3bb920e5	0.0056496733
91	0xbc9aefe4	-0.018913217
92	0x3d47061a	0.048589803
93	0x3c3976f8	0.011319868
94	0xbcec5c4b	-0.028852602
95	0x3cbf9b71	0.02338955
96	0xbd1fde99	-0.039030645
97	0xbd206d36	-0.03916665
98	0x3d0a92f1	0.03383154
99	0x3d5192de	0.051165454
100	0xbd07ce57	-0.033155765
101	0xbcd4ffaa	-0.026000816
102	0x3bf4a836	0.0074663414
103	0x3cd9ebfe	0.026601788
104	0x3ca1b0dd	0.019737655
105	0x3d8df888	0.06932169
106	0xbd02525f	-0.031816836
107	0xbd499383	-0.049212944
108	0xbcf4949f	-0.029856024
109	0xbd0f8fae	-0.035049133
110	0x3d73a92d	0.05948751
111	0x3d4bcac3	0.049753916
112	0xba86882d	-0.0010263972
113	0x3d50ac65	0.05094566
114	0x3c55409f	0.013015895
115	0x3c341e97	0.010993621
116	0xbd9a4224	-0.075321466
117	0x3cddce9b	0.027076056
118	0x3d45d849	0.04830197
119	0x3d4f3548	0.050587922
120	0xbdc1d2e0	-0.09464049
121	0xbb8a83fa	-0.0042271586
122	0x3ab9d458	0.0014177663
123	0x3c5a7f73	0.01333605
124	0x3cd71cf8	0.02625893
125	0xbc95d92e	-0.018292036
126	0xbb5b485c	-0.0033459878
127	0xbc7b173c	-0.015325364
128	0x3d3606da	0.044440128
129	0xbb5fb436	-0.0034134514
130	0xbd3ce86e	-0.0461201
131	0x3c6a183c	0.0142880045
132	0x3b1002cd	0.0021974326
133	0x3d747a33	0.05968685
134	0x3d62eb0a	0.055399932
135	0xbcb9908d	-0.022651935
136	0xbda16c0a	-0.07881935
137	0x3d638cbc	0.055554137
138	0x3d68d27e	0.056841366
139	0xbd2da95d	-0.042397846
140	0x3d9892aa	0.07449849
141	0xbc05a040	-0.008155882
142	0xbd2cfda6	-0.042234086
143	0xbd33ad9c	-0.04386674
144	0x3d322260	0.043489814
145	0xbc7031e1	-0.01466033
146	0x3d267edf	0.040648337
147	0xbda0da8b	-0.07854184
148	0xbb91b618	-0.004446756
149	0x3be34c9c	0.006936623
150	0xbc485539	-0.01222735
151	0xbd856d56	-0.06514995
152	0x3da5c6d7	0.08094566
153	0xbabc7716	-0.0014378752
154	0x3d66a7ad	0.05631225
155	0x3d4547a0	0.04816401
156	0xbb812b6d	-0.0039419443
157	0x3da8eff3	0.08248892
158	0x3bf21cfb	0.0073887086
159	0x3b493573	0.0030702024
160	0x3cc4fcc3	0.024046307
161	0xbd545825	-0.051841874
162	0xbdbd5826	-0.092453286
163	0xbd35670a	-0.04428772
164	0x3d7b879c	0.061408624
165	0x3d2fce59	0.042921398
166	0x3d865965	0.065600194
167	0x3d44901a	0.04798899
168	0xbd194a7c	-0.03742455
169	0xbd5bac7c	-0.05363129
170	0x3d8bcbf2	0.06826009
171	0xbb7c82f2	-0.0038530198
172	0x3b801479	0.0039086905
173	0x3c2bea92	0.010492938
174	0xbd4fe361	-0.050753955
175	0x3d7abb4c	0.061213776
176	0xbd34d8c1	-0.044152025
177	0xbd28d8cd	-0.041222382
178	0xbcf9cdf5	-0.030493716
179	0xbd21dbd2	-0.039516278
180	0xbd6578e0	-0.05602348
181	0xbd9aa952	-0.075518265
182	0xbd6f1310	-0.05836779
183	0x3bbf5bd8	0.005839806
184	0xbd4c2657	-0.04984125
185	0xbbfe2810	-0.0077562407
186	0xbc87af13	-0.016562974
187	0xbd6b924d	-0.05751257
188	0xbcd78ef1	-0.026313277
189	0xbb79e9df	-0.0038133783
190	0x3d358f16	0.04432591
191	0x3bb84ec9	0.0056246263
192	0x3d75dd4e	0.060025506
193	0x3d5b4d9e	0.05354082
194	0xbd0ba35b	-0.034091335
195	0x3d2d445b	0.042301517
196	0x3d9e637e	0.077338204
197	0x3cfbb98e	0.030728128
198	0x3d5e9764	0.054343596
199	0x3cc50265	0.024048993
200	0xbc07125e	-0.008244125
201	0xbcce225e	-0.025162872
202	0xbc117fbb	-0.008880551
203	0x3d09d0d7	0.03364643
204	0x3d26c3f5	0.040714223
205	0xbbeeafc0	-0.0072841346
206	0xbc658c93	-0.014010566
207	0xbbc4df17	-0.0060080397
208	0xbc13edf3	-0.0090288995
209	0xbcb451ce	-0.022011664
210	0x3d8d570d	0.06901369
211	0xb8fadbe6	-0.00011961888
212	0xbd1d908b	-0.038467925
213	0xbdb2a418	-0.08722705
214	0x3ca88acb	0.020573994
215	0x3c8f228a	0.017472524
216	0xbd066419	-0.032810304
217	0xbce9ec62	-0.028555099
218	0x3d9a1fc0	0.07525587
219	0x3cdca717	0.026935143
220	0x3bc7142c	0.0060754027
221	0xbcfacd7d	-0.030615563
222	0x3d5f6f4a	0.054549493
223	0x3cac9d3e	0.021071073
224	0x3d4adf00	0.049529076
225	0xbc242d51	-0.01002057
226	0xbc07a64f	-0.008279397
227	0x3d0de85d	0.034645427
228	0x3d349335	0.0440857
229	0xbcccb22a	-0.024987299
230	0x3d3927d8	0.045204014
231	0x3b8e5948	0.0043441392
232	0xbc211a02	-0.009832861
233	0x3c5e3ee9	0.013564804
234	0xbd821918	-0.063524425
235	0x3bfa90a5	0.0076466375
236	0x3d64a840	0.05582452
237	0xbbfc6571	-0.0077025224
238	0xbd833bdf	-0.06407904
239	0xbd898f6d	-0.067168094
240	0x3c63c6b0	0.013902351
241	0xbb0364e8	-0.0020049158
242	0x3c273d78	0.010207526
243	0xbcf2be89	-0.02963187
244	0xbdbc18a8	-0.0918439
245	0x3c563c0b	0.013075839
246	0x3aeaef61	0.0017924124
247	0xbd39fa32	-0.04540462
248	0xbd114211	-0.035463396
249	0x3bf922f7	0.007603045
250	0xbd90ac78	-0.07064146
251	0x3c5a165a	0.013310993
252	0xbd929434	-0.07157174
253	0x3ca0aec0	0.019614577
254	0x3c2426d7	0.010019026
255	0x3a4145ab	0.0007372747

instance_encoder.3.bias f4 [128]
0	0xbd1b4976	-0.037911855
1	0x3caf6917	0.021412415
2	0x3d16ff19	0.036864374
3	0xbd4392c8	-0.047747403
4	0xbc53fb91	-0.012938396
5	0xbaf61e27	-0.0018777297
6	0x3cb686de	0.022281107
7	0xbcf4ec73	-0.029897904
8	0x3d6af0e0	0.057358623
9	0xbd17624d	-0.03695898
10	0x3c9a1396	0.018808167
11	0xbd8032da	-0.06259699
12	0xbd4d5b18	-0.050135702
13	0xbd09453d	-0.033513296
14	0x3d08920d	0.03334241
15	0x3d682151	0.056672398
16	0xbb61c229	-0.0034448004
17	0x3d6756d2	0.056479283
18	0x3c453c3d	0.012038288
19	0xbd466406	-0.048435234
20	0x3d3cdace	0.046107106
21	0xbcd62b2a	-0.02614363
22	0x3d385308	0.04500106
23	0xbb8467ec	-0.0040407088
24	0x3d84a807	0.06477361
25	0xbd75c070	-0.059997976
26	0x3d0ba7a1	0.03409541
27	0x3c527602	0.012845518
28	0x3bc50256	0.0060122414
29	0xbcc62c02	-0.024190906
30	0x3c880d3f	0.016607879
31	0x3cf9e9fd	0.030507082
32	0xbc823498	-0.01589422
33	0xbd229be2	-0.039699443
34	0x3cedbb7e	0.029020067
35	0x3d0b149a	0.033955194
36	0x3d93350a	0.07187851
37	0x3d431332	0.047625728
38	0x3d1c33be	0.038135283
39	0x3d070f8f	0.032973822
40	0x3d7d8838	0.061897486
41	0x3d254486	0.040348552
42	0x3d8fc3c3	0.070197605
43	0xbc60abca	-0.013712833
44	0x3d4229f1	0.04740328
45	0x3d17547b	0.0369458
46	0xbd4dfcb4	-0.050289825
47	0xbc204458	-0.009781919
48	0x3bc6012e	0.006042621
49	0xbd098c8d	-0.033581305
50	0x3d69c20b	0.05706982
51	0x3d74c171	0.059754793
52	0x3d421561	0.04738367
53	0x3d48d34f	0.049029645
54	0xbcd981c6	-0.026551139
55	0x3cc622b1	0.024186464
56	0xbd2469a3	-0.040139806
57	0x3d6cf875	0.057854135
58	0x3cf923cf	0.030412583
59	0x3d3eac26	0.046550892
60	0x3d701b04	0.058619514
61	0xbca20287	-0.019776596
62	0xbd82b697	-0.063824825
63	0x3b8a5a3c	0.0042221826
64	0xbb7d55bc	-0.0038655838
65	0xbc1e6dfb	-0.009669776
66	0xbd472cc6	-0.048626684
67	0x3c2ee120	0.010673791
68	0x3ba35876	0.0049849106
69	0x3cc8fe90	0.024535447
70	0x3ce1e419	0.027574586
71	0x3d19fcac	0.037594482
72	0xbcc27fa2	-0.0237425
73	0xbc9e24bd	-0.019304628
74	0x3c6f0adb	0.0145899905
75	0x3d473a53	0.048639607
76	0x3c6c889f	0.01443687
77	0xbd47bb97	-0.048762884
78	0x3d01204a	0.031524934
79	0x3d422952	0.047402687
80	0xbd18f910	-0.0373469
81	0x3b910215	0.004425297
82	0xbd5e5544	-0.054280534
83	0x3ca75e59	0.02043073
84	0x3d7cde7d	0.06173562
85	0x3caaeeba	0.020865787
86	0x3d8943c2	0.06702377
87	0xbcd24934	-0.025669672
88	0x3d8fe374	0.07025805
89	0xbc127bf6	-0.008940687
90	0x3ccae7a8	0.024768665
91	0x3cad4cec	0.021154843
92	0x3caa733e	0.020806905
93	0x3da91afa	0.082570985
94	0x3d28d462	0.04121817
95	0x3ca60853	0.020267641
96	0xbd13951f	-0.036030885
97	0x3d5862d2	0.052828617
98	0x3dae401e	0.08508323
99	0xbd817408	-0.06320959
100	0x3d676bb1	0.056499187
101	0x3d08c897	0.033394422
102	0xbd774523	-0.06036867
103	0x3d05b0aa	0.032639183
104	0x3c4265f4	0.011865128
105	0xbc9a5bc1	-0.01884258
106	0x3d54a949	0.051919255
107	0xbd7d641d	-0.061863054
108	0x3d9e0678	0.077160776
109	0xbd16ae93	-0.03678758
110	0x3da638ae	0.081162795
111	0x3d1696ca	0.036764897
112	0x3ca17090	0.019706994
113	0xbd8b4d78	-0.06801885
114	0xbcf5e797	-0.030017657
115	0x3c40b718	0.011762403
116	0x3d75aa2b	0.059976738
117	0x3c689df0	0.0141978115
118	0x3d23e39a	0.04001198
119	0x3d91025a	0.07080527
120	0xbcc1dde9	-0.023665385
121	0xbd7d8de5	-0.0619029
122	0xbcf9fbb1	-0.030515524
123	0x3d05232b	0.032504242
124	0xbd0a3590	-0.033742487
125	0xbb01ead0	-0.0019823797
126	0x3d3e6698	0.04648456
127	0x3d315db7	0.043302264

attention.V.weight f4 [128, 128]
0	0xbd40b0ab	-0.047043484
1	0x3cec03d5	0.028810421
2	0xbd3155a3	-0.04329456
3	0x3d8e4e9b	0.069485866
4	0xbd028fa3	-0.031875264
5	0x3d042880	0.032265186
6	0x3dbe9acd	0.0930687
7	0x3d484d3d	0.048901785
8	0xbd56e495	-0.052464087
9	0xbd22e7cb	-0.039771836
10	0x3d8ba856	0.06819217
11	0xbd8ce502	-0.06879617
12	0xbc10817d	-0.008819935
13	0x3d719ba2	0.058986314
14	0xbd890825	-0.066910066
15	0xbc620177	-0.013794295
16	0x3d948648	0.072521746
17	0xbd1e9a50	-0.038721383
18	0xbd2dfc4e	-0.042476945
19	0xbd80d062	-0.06289746
20	0x379a196b	1.8370067e-05
21	0x3d1e58af	0.038658794
22	0x3d96b541	0.0735879
23	0xbb678ad1	-0.0035330544
24	0x3d0914a1	0.03346694
25	0x3d023b1b	0.03179465
26	0x3d9b1332	0.075720206
27	0xbd7670ce	-0.060166173
28	0x3d2e6169	0.042573366
29	0x3d04043a	0.032230593
30	0x3d529f54	0.05142148
31	0xbd18e51a	-0.037327863
32	0xbd6c1684	-0.05763866
33	0x3baca83d	0.005269079
34	0xbd43d7b2	-0.047813125
35	0xbb4cf1f3	-0.0031272143
36	0x3d9bc3ae	0.07605682
37	0x3b47cd23	0.0030487261
38	0xbcddd4c9	-0.027079003
39	0xbcb794c6	-0.022409808
40	0xbd238173	-0.039918374
41	0x3da307dc	0.079604834
42	0xbd582143	-0.052766096
43	0xbb8c0082	-0.0042725215
44	0xbc7d04e4	-0.015443061
45	0xbd522cb9	-0.051312182
46	0x3d7145eb	0.05890457
47	0x3db6e01d	0.08929465
48	0x3dbe7e79	0.093014665
49	0x3db0948d	0.08622084
50	0x3cedc4b6	0.029024463
51	0xbd79f953	-0.06102879
52	0x3da7734f	0.0817629
53	0x3c05fc0d	0.008177769
54	0x3cbd5fa6	0.023116898
55	0x3cc2ffbb	0.023803582
56	0xbd49398c	-0.049127147
57	0x3c017576	0.00790154
58	0x3c983e73	0.018584466
59	0x3d1f3b67	0.03887501
60	0xbd328ced	-0.04359143
61	0x3da27e25	0.079342164
62	0xbd09e640	-0.03366685
63	0xbd9ba05d	-0.07598946
64	0xbca8e991	-0.020619186
65	0xbd106b5c	-0.035258636
66	0x3d107a7d	0.035273064
67	0xbd0eabbf	-0.03483176
68	0xbc24b600	-0.010053158
69	0x3d68ceca	0.056837834
70	0xbdc4ab64	-0.09603003
71	0x3d6de022	0.058075078
72	0x3c72a7d6	0.014810523
73	0x3c91288d	0.017719531
74	0x3c687fe6	0.01419065
75	0xbd8ca6cf	-0.06867754
76	0x3c87b3de	0.01656526
77	0xbd274241	-0.04083467
78	0x3d4224f9	0.04739854
79	0xbd953fae	-0.072875366
80	0x3d09a062	0.03360022
81	0x3bd6860f	0.0065467427
82	0x3baeb62e	0.005331776
83	0x3d733b60	0.059382796
84	0xbbaa778f	-0.005202241
85	0x3cc99863	0.024608796
86	0xbce937ef	-0.028469054
87	0xba9662ea	-0.001147357
88	0x3d169074	0.036758855
89	0x3c1fa72e	0.009744449
90	0xbcd592e8	-0.026071027
91	0xbc1b310d	-0.009472144
92	0x3d988e77	0.07449048
93	0xbc99ad9f	-0.018759547
94	0x3dc54207	0.09631734
95	0x3d9ea619	0.07746524
96	0xbd5ddd44	-0.054166093
97	0xbc05b207	-0.008160121
98	0xbd1aae74	-0.037764028
99	0xbdd598ec	-0.10429558
100	0x3d2e21a3	0.042512547
101	0x3d8f396b	0.069933735
102	0x3d809277	0.06277936
103	0x3da079c1	0.07835723
104	0x3d9e511a	0.07730313
105	0x3c727254	0.014797766
106	0x3c044817	0.008073828
107	0x3d377afd	0.044795025
108	0x3a4f9585	0.00079187035
109	0x3d981329	0.074255295
110	0x3ce04a95	0.027379313
111	0x3dab42a5	0.08362321
112	0x3c165872	0.00917636
113	0xbc9947b8	-0.018710956
114	0xbb150cd2	-0.0022743237
115	0x3c664aa3	0.014055881
116	0xbda9664f	-0.08271467
117	0x3da79925	0.08183507
118	0xbd9a5115	-0.075349964
119	0xbd167487	-0.036732223
120	0x3d8fb765	0.070174016
121	0xbce06554	-0.027392067
122	0x3dbece88	0.093167365
123	0xbce3bb37	-0.027799232
124	0xbd72574d	-0.059165288
125	0xbd39f31e	-0.04539787
126	0x3d20c805	0.039253253
127	0xbd4fd497	-0.05073985
128	0x3ca9f2f2	0.020745728
129	0x3d2477ff	0.0401535
130	0xbcad1759	-0.021129297
131	0x3d2ba9c5	0.04190995
132	0xbd094688	-0.03351453
133	0xbd95c70c	-0.07313356
134	0xbd12166b	-0.03566591
135	0xbd35ef2a	-0.044417538
136	0xbd20c18d	-0.039247084
137	0xbe008cc7	-0.12553702
138	0x3dbd1b5a	0.092337325
139	0xbc223614	-0.009900589
140	0x3d819d23	0.063287996
141	0x3d972f5e	0.073820814
142	0xbd800ec2	-0.06252815
143	0x3d2dc07a	0.042419888
144	0xbc33d811	-0.010976807
145	0xbc5035be	-0.012708126
146	0xbc3d5820	-0.011556655
147	0x3c8714e3	0.016489452
148	0x3db5d683	0.088788055
149	0xbd52967a	-0.051413037
150	0x3daa5655	0.08317248
151	0x3dc53579	0.0962934
152	0x3cdb5bc8	0.026777163
153	0x3dafdfc8	0.08587605
154	0xbd932b95	-0.07186047
155	0x3dc71211	0.09720243
156	0x3d2fc682	0.04291392
157	0x3db41dc6	0.08794741
158	0x3d8e220f	0.0694009
159	0x3d38b8aa	0.045097984
160	0xbc7fb9c7	-0.015608258
161	0xbd2f47c5	-0.042793054
162	0x3d0c78fd	0.03429507
163	0xbccedfba	-0.025253166
164	0x3d861a42	0.06547977
165	0x3d406231	0.046968643
166	0xbd0ca7ec	-0.03433983
167	0xbda687a2	-0.08131339
168	0xbdecfd21	-0.11571718
169	0xbda02a38	-0.078205526
170	0xbdb84706	-0.08997922
171	0xbd7b51b9	-0.061357234
172	0x3de2c5dc	0.11072895
173	0x3db28b2b	0.087179504
174	0xbb49ce3e	-0.0030793096
175	0x3d85972b	0.065229736
176	0x3d832348	0.06403214
177	0x3d78a986	0.060708545
178	0x3a6b322a	0.00089720136
179	0x3bbd04c8	0.0057683922
180	0x3a8e89d2	0.0010874814
181	0xbc1e2422	-0.009652169
182	0xbcf4ad00	-0.02986765
183	0xbd2d9cc8	-0.042385846
184	0x3ddb6eae	0.1071447
185	0x3c3aa0c9	0.011390873
186	0xbd4a00f1	-0.049317304
187	0xbce96ecc	-0.028495215
188	0x3acafdbe	0.0015486998
189	0xbc1f9021	-0.009738953
190	0xbd23fa29	-0.040033493
191	0x3d8900d6	0.066896126
192	0xbcf12a6e	-0.029439177
193	0x3dbd47a7	0.09242182
194	0xbd5eaff1	-0.05436701
195	0xbd9b1918	-0.07573146
196	0xbcd71368	-0.02625437
197	0x3c16fee4	0.009216044
198	0xbd911fcb	-0.07086142
199	0x3cb98439	0.022646056
200	0x3cb20f30	0.021735758
201	0xbc43ebfd	-0.011958119
202	0x3d738eb5	0.059462268
203	0xbd8d9e24	-0.069149286
204	0xbca4203b	-0.0200349
205	0x3d9becd9	0.076135345
206	0x3da8a122	0.08233859
207	0x3c2a03ab	0.010376851
208	0x3d31936b	0.04335348
209	0x3d2989e0	0.041391253
210	0xbd903e2d	-0.07043109
211	0x3d1f25e3	0.03885449
212	0x3ce68f03	0.028144365
213	0x3c4c660c	0.012475502
214	0xbd9af4e6	-0.07566242
215	0xbcb860ab	-0.022507032
216	0x3d3fc29a	0.046816446
217	0xbda37bd2	-0.07982601
218	0x3cb255a5	0.021769354
219	0x3d6b0391	0.057376448
220	0xbd6336de	-0.055472247
221	0x3d8f569a	0.0699894
222	0xbcfa35e2	-0.030543271
223	0xbb8bcc70	-0.004266314
224	0xbd8273eb	-0.06369766
225	0xbd6be871	-0.05759472
226	0xbdaec573	-0.08533754
227	0x3d4153da	0.047199108
228	0x3d52ef29	0.051497612
229	0x3d8fcf61	0.07021976
230	0x3d7e45c0	0.062078238
231	0xbd706d55	-0.058698017
232	0x3c0a4531	0.008439348
233	0x3d92fb31	0.07176817
234	0xbdbadede	-0.0912454
235	0xbbe16eb8	-0.006879654
236	0xbc4be896	-0.0124455895
237	0xbc19764f	-0.009366586
238	0xbda5a178	-0.08087438
239	0xbd82f3f5	-0.06394187
240	0x3cfb2ca2	0.030660931
241	0xbc3ab080	-0.01139462
242	0x3ca4b1e5	0.020104358
243	0x3d59cfda	0.05317674
244	0xbdc0ef7c	-0.09420678
245	0x3d8223b8	0.06354469
246	0xbd17d413	-0.037067484
247	0x3ca936b8	0.020655975
248	0x3d31832e	0.043337993
249	0xbcc885ab	-0.0244778
250	0x3de2e924	0.11079624
251	0x3bbf521c	0.0058386456
252	0xbd26c779	-0.040717576
253	0x3b275a0f	0.0025535857
254	0xbd58c44b	-0.052921575
255	0xbc3e4857	-0.011613927

attention.V.bias f4 [128]
0	0xbd5bc420	-0.053653836
1	0x3d8210c9	0.06350858
2	0x3c93d6ec	0.018046819
3	0x3c9892a8	0.018624619
4	0xbdb8a0e8	-0.090150654
5	0x3c8c6161	0.017136278
6	0xbcfd92d7	-0.030953808
7	0x3c453d15	0.012038489
8	0xbd98f747	-0.074690394
9	0x3d018c15	0.031627733
10	0xbbc60c3c	-0.006043939
11	0x3deb8c85	0.11501411
12	0xbda7c04a	-0.08190973
13	0x3d1c2ee2	0.03813065
14	0xbd1a1975	-0.037621934
15	0xbd9213bb	-0.071326695
16	0xbd297e0b	-0.04137997
17	0x3d1d131c	0.038348302
18	0x3dbd4179	0.092410035
19	0x3be38c2b	0.0069441996
20	0xbd415e91	-0.047209326
21	0x3cf0dd3f	0.029402373
22	0x3d01a6c5	0.031653184
23	0x3dd49c26	0.103813455
24	0xbd8de24e	-0.0692793
25	0xbd0b0591	-0.033940855
26	0x3cd85024	0.026405402
27	0x3d4d6f25	0.050154824
28	0xbd1c9dd6	-0.03823646
29	0x3d97830e	0.073980436
30	0x3c17abcf	0.009257271
31	0xbace35d3	-0.0015732594
32	0xbcf340d7	-0.029694004
33	0x3c93ae08	0.01802732
34	0x3d4c0c1f	0.049816247
35	0xbd683c95	-0.0566984
36	0xbd579aad	-0.052637745
37	0xbc23795f	-0.009977668
38	0x3dcdacf1	0.100427516
39	0x3c9050a9	0.017616587
40	0x3c8c8636	0.01715384
41	0xbdc2db7b	-0.09514519
42	0x3da246a2	0.079236284
43	0xb84c7feb	-4.8756523e-05
44	0x3c51196d	0.01276241
45	0xbc413b60	-0.011793941
46	0x3bfce733	0.007717991
47	0xbca6c5a2	-0.02035791
48	0x3cb0d13f	0.021584151
49	0xbaefb405	-0.0018287903
50	0x3d8389f5	0.064227976
51	0xbccbc5b5	-0.024874547
52	0xbc3fc6ba	-0.011705095
53	0x3d29e565	0.041478533
54	0x3d38bb5b	0.04510055
55	0xbd7d5f03	-0.06185819
56	0x3c9638fc	0.01833772
57	0xbc4cc2f9	-0.012497657
58	0xbd2d9d33	-0.042386245
59	0xbc22138e	-0.0098923575
60	0x3d91f056	0.071259186
61	0xbde9b344	-0.11411145
62	0x3d8a85cc	0.06763801
63	0x3cf80e5e	0.030280288
64	0xbd482cae	-0.048870735
65	0xbd15fc5e	-0.03661763
66	0x3ce8f34f	0.028436331
67	0x3c078f50	0.008273914
68	0x3cbe491b	0.023228219
69	0x3db46dae	0.08809982
70	0xbd2ff780	-0.042960644
71	0x3d50df58	0.050994247
72	0xbd8221fa	-0.06354137
73	0x3d0e5396	0.034747683
74	0x3dc2fc24	0.09520748
75	0x3d5ac4cb	0.053410333
76	0x3db3f155	0.08786265
77	0x3da707bf	0.08155774
78	0x3c4ea955	0.012613614
79	0x3d848dfd	0.064723946
80	0x3ce31e4b	0.027724406
81	0xbdcd9c95	-0.10039631
82	0x3d365dd1	0.044523064
83	0xbc956fd2	-0.018241797
84	0x3cdf789f	0.027279196
85	0x3d1e7e40	0.03869462
86	0xbd845b34	-0.06462708
87	0x3cca4e9b	0.024695685
88	0xbd0ff7ed	-0.03514855
89	0x3c276c77	0.010218731
90	0x3d54c2ef	0.051943716
91	0x3dd0a594	0.101878315
92	0x3cd8d0c4	0.026466735
93	0x3cde49b2	0.02713475
94	0xbd2cb142	-0.042161234
95	0x3d7502b5	0.059817035
96	0x3b13c35c	0.0022546863
97	0x3d669ecc	0.056303784
98	0xbba9aa0f	-0.0051777433
99	0x3d43a919	0.047768686
100	0xbbb69195	-0.005571554
101	0xbd826466	-0.06366806
102	0x3d27fc2b	0.04101197
103	0xbd2a0b26	-0.04151454
104	0x3da0deb7	0.078549795
105	0xbcf6399a	-0.030056763
106	0xbdbe7afa	-0.093008
107	0xbd5c8a42	-0.05384279
108	0x3d4187cf	0.047248658
109	0xbd870716	-0.065931484
110	0xbd91b63a	-0.07114835
111	0xbd9cf63e	-0.076641545
112	0x3d97d142	0.0741296
113	0x3bff8dc7	0.0077988836
114	0xbbca5c3c	-0.006175546
115	0x3c14b831	0.009077118
116	0xbaaf42f5	-0.0013371395
117	0xbdd6a624	-0.104809076
118	0xbbbd9196	-0.0057851775
119	0xbdafecd1	-0.08590091
120	0x3d8bb02c	0.068207115
121	0xbd65b14b	-0.056077283
122	0xbd1ac2fd	-0.03778361
123	0x3d7cdf5e	0.061736457
124	0xbcbd4ced	-0.02310797
125	0xbd07acbe	-0.033123724
126	0x3d835e0a	0.06414421
127	0xbb914565	-0.0044333213

attention.w.weight f4 [1, 128]
0	0x3d2e0c58	0.04249224
1	0x3dd054b8	0.10172409
2	0xbdd89bb5	-0.10576574
3	0xbdab4782	-0.083632484
4	0x3d82ff3a	0.06396337
5	0x3d15827f	0.036501404
6	0xbdd7727b	-0.10519882
7	0x3d04197c	0.032250866
8	0x3d955fe7	0.072936825
9	0x3d68ceaa	0.056837715
10	0xbdac7e71	-0.08422554
11	0xbd150fcc	-0.03639202
12	0x3dd78cdd	0.105249144
13	0xbd0dcf35	-0.034621436
14	0x3d876e3b	0.06612822
15	0xbd65d8b2	-0.05611486
16	0xbd28144b	-0.041034978
17	0x3cc2cd52	0.023779545
18	0xbd89ae83	-0.067227386
19	0x3d6d4483	0.057926666
20	0xbdd5695f	-0.104204886
21	0x3d4bf45c	0.049793586
22	0xbdb73d2d	-0.08947215
23	0xbd9f82f1	-0.07788647
24	0x3d16bd12	0.036801405
25	0x3b02240d	0.0019857914
26	0xbd893b9f	-0.06700825
27	0x3dd44212	0.103641644
28	0x3d49abd4	0.049236134
29	0xbd9a5989	-0.07536609
30	0xbd7de7cf	-0.061988648
31	0x3da6acb1	0.08138407
32	0x3d6a205f	0.057159778
33	0x3d6e464e	0.058172517
34	0x3daaf218	0.08346957
35	0x3cfa6c73	0.03056929
36	0x3dabf169	0.08395655
37	0x3dcffcb9	0.10155625
38	0xbdb66c26	-0.089073464
39	0x3d507860	0.05089605
40	0x3c264c4f	0.010150029
41	0x3d167aa9	0.03673807
42	0xbcf6c26a	-0.030122
43	0x3daf7ff3	0.08569326
44	0xbdbd4d2b	-0.09243234
45	0x3dbcff2a	0.09228356
46	0xbd207a5a	-0.039179184
47	0xbdeef34c	-0.11667499
48	0x3d603c2b	0.05474488
49	0xbdd69a2f	-0.10478627
50	0x3de89e06	0.113582656
51	0xbd4e7b07	-0.050410297
52	0x3dac45ee	0.084117755
53	0x3d8d7f79	0.06909079
54	0xbcc6b779	-0.024257408
55	0xbd5722ad	-0.052523304
56	0xbd624bd9	-0.055248115
57	0xbdaa4292	-0.083134785
58	0xbd657b04	-0.05602552
59	0x3d9965cd	0.0749012
60	0xbd055ec9	-0.032561097
61	0x3da4c167	0.08044701
62	0xbd893dff	-0.06701278
63	0xbd2919ab	-0.041284245
64	0x3deb7e1c	0.11498663
65	0x3d8e3b22	0.069448724
66	0xbd9041ff	-0.07043838
67	0xbdb557a6	-0.08854608
68	0x3da4966c	0.08036503
69	0xbdbcd886	-0.09220986
70	0x3d8dd2a8	0.06924945
71	0xbd942229	-0.07233078
72	0xbd57df20	-0.052703023
73	0xbd92e638	-0.07172817
74	0xbdf87c27	-0.12133055
75	0xbd6fdcc2	-0.05856014
76	0xbd8dd20d	-0.0692483
77	0xbd84c505	-0.06482891
78	0xbddda87c	-0.108231515
79	0xbd1a6a37	-0.03769895
80	0x3d911ae5	0.07085208
81	0x3da12dd6	0.07870071
82	0xbd41aa3e	-0.047281496
83	0xbdc70000	-0.09716797
84	0x3dae5327	0.08511954
85	0xbdaebb4f	-0.0853182
86	0x3d88d3e6	0.066810414
87	0xbdc57c0b	-0.096428
88	0xbddc3f66	-0.1075428
89	0x3d4c04c3	0.04980923
90	0x3dc9ae69	0.09847719
91	0xbd3e2f68	-0.04643193
92	0x3d2ac8d4	0.04169543
93	0xbde79658	-0.11307973
94	0xbd9dea41	-0.07710696
95	0xbd214e0a	-0.039381064
96	0xbd1cc670	-0.038275182
97	0xbdf6fb30	-0.12059629
98	0x3d86c7cc	0.06581077
99	0x3d20cd04	0.039258018
100	0x3d9f9e74	0.077938944
101	0xbd78d878	-0.060753316
102	0xbc48b561	-0.012250275
103	0xbdac28fb	-0.08406254
104	0xbd8a336b	-0.067480884
105	0xbd0a7ca0	-0.033810258
106	0x3d5c2a02	0.053751
107	0xbd6e96c6	-0.058249258
108	0x3dba4d11	0.090967305
109	0x3c06ac36	0.008219769
110	0x3cd0bcca	0.025480647
111	0x3db98673	0.09058847
112	0xbdc3c52a	-0.095590904
113	0x3d3b05bd	0.04565977
114	0x3d743191	0.059617583
115	0xbdb90b6f	-0.09035384
116	0x3db0ea7f	0.086384766
117	0x3dec4c0a	0.11537941
118	0x3d2ab21b	0.04167376
119	0x3d0d2d40	0.034466982
120	0xbd9595f5	-0.07303993
121	0x3db3ca48	0.087788165
122	0x3dd8c0b3	0.105836295
123	0xbd9ffd44	-0.078119785
124	0xbd6991fb	-0.057023983
125	0xbda1dbd5	-0.07903258
126	0x3b7e222b	0.003877769
127	0xbd8b61bf	-0.06805753

static_proj.0.weight f4 [128, 9]
0	0xbd35700c	-0.04429631
1	0xbe946524	-0.28983414
2	0x3defe297	0.117131405
3	0xbe115022	-0.14190724
4	0xbe6872b7	-0.2270001
5	0xbdd4e381	-0.103949554
6	0x3dc10846	0.09425406
7	0x3caf6c7c	0.021414034
8	0xbdcf07dc	-0.10108921
9	0x3e5f2868	0.21792758
10	0x3e1f2b0c	0.15543765
11	0xbe010b85	-0.1260205
12	0xbcfdf57e	-0.031000849
13	0xbe8ffbce	-0.281218
14	0xbdaa4aa6	-0.08315019
15	0xbbe6fbf9	-0.0070490805
16	0x3e8b9cba	0.2726801
17	0xbcb92dcd	-0.022604847
18	0xbcf68e19	-0.030097054
19	0xbe92c4ca	-0.28665763
20	0x3e16be21	0.14720966
21	0x3e4819fd	0.19541164
22	0xbdf5ff19	-0.12011547
23	0xbe43ceca	-0.19121853
24	0xbe2edb69	-0.17075886
25	0x3b8c25b7	0.004276957
26	0x3d955536	0.07291643
27	0xbd185fd5	-0.037200768
28	0x3e892cf7	0.26792118
29	0x3e8ee9a0	0.27912617
30	0x3e502082	0.20324901
31	0xbd409009	-0.047012363
32	0x3db5ed70	0.08883178
33	0x3e5dcad2	0.21659401
34	0x3dc5bbf3	0.09654989
35	0x3e9d7675	0.30754438
36	0x3e8e21bd	0.27760115
37	0xbe09df6f	-0.1346414
38	0x3d9de57f	0.077097885
39	0xbd32a18f	-0.043611106
40	0x3e6fd52d	0.23421164
41	0xbea7b43b	-0.32754692
42	0xbe22d636	-0.15902027
43	0xbc754792	-0.014970677
44	0x3ece72ee	0.4032206
45	0x3d33e593	0.04392011
46	0x3d4f9d7f	0.05068731
47	0xbe337957	-0.17526756
48	0xbd27d0f1	-0.040970746
49	0xbe1b5000	-0.15167236
50	0x3d418b3d	0.04725193
51	0x3debd223	0.1151469
52	0xbe175a4d	-0.14780541
53	0xbe7b182c	-0.2452094
54	0xbeb58879	-0.35455683
55	0xbdf61a6d	-0.12016759
56	0xbea8c2da	-0.3296116
57	0xbeb8e0f2	-0.3610912
58	0x3e9faf45	0.31188408
59	0xbe9ad4ab	-0.30240378
60	0xbe71824a	-0.23584858
61	0x3e598457	0.2124189
62	0xbec19f00	-0.3781662
63	0xbe2c1cb3	-0.16807823
64	0x3db3dffc	0.08782956
65	0xbe8b0329	-0.27150849
66	0x3bc5eba5	0.006040054
67	0xbe4bd823	-0.19906668
68	0x3e012435	0.12611468
69	0xbb699feb	-0.0035648297
70	0xbe109abd	-0.14121528
71	0xbe68883d	-0.22708221
72	0xbcc743e4	-0.024324365
73	0x3e85a069	0.26098946
74	0x3e36c960	0.17850256
75	0x3e9e52ca	0.30922538
76	0x3e9d5d98	0.3073547
77	0x3daf80f4	0.08569518
78	0xbd280343	-0.041018736
79	0xbe8a6ca4	-0.2703601
80	0xba92d63d	-0.0011202764
81	0xbe0ff23d	-0.1405725
82	0xbea80521	-0.32816413
83	0xbe6029a4	-0.21890885
84	0xbc946851	-0.018116148
85	0x3ce52985	0.0279739
86	0x3e2cc4d5	0.1687196
87	0x3dbe9add	0.093068816
88	0xbebc337d	-0.36758032
89	0x3ee1d004	0.44104016
90	0x3e842866	0.25812072
91	0xbe0c74b6	-0.13716397
92	0x3e0e93df	0.13923596
93	0x3e2952ea	0.16535535
94	0x3da78e09	0.08181388
95	0xbdf92a4a	-0.12166269
96	0x3e08251d	0.13295408
97	0xbe86cc3a	-0.26327688
98	0x3d8b2c1c	0.067955226
99	0xbe1f0f3f	-0.1553316
100	0x3d9f76c5	0.07786325
101	0xbdca8e4b	-0.098904215
102	0x3e264904	0.16238791
103	0xbe2ce2fe	-0.16883466
104	0xbe95b6f5	-0.29241148
105	0x3d4234a7	0.047413494
106	0x3d9a0587	0.075205855
107	0xbe366033	-0.17810135
108	0xbd67d6c8	-0.056601316
109	0xbe47ffad	-0.19531126
110	0x3db99926	0.09062414
111	0x3eb0b16c	0.34510362
112	0x3e330dca	0.17485729
113	0x3e8b93ea	0.27261287
114	0xbe182109	-0.14856352
115	0xbe1f5623	-0.15560202
116	0x3dc15b33	0.09441223
117	0xbe345c1a	-0.17613259
118	0x3db3c0b6	0.08776991
119	0x3e3246b6	0.17409787
120	0x3e3809f0	0.17972541
121	0x3da1cdbe	0.0790057
122	0xbcacd92d	-0.021099651
123	0x3ddde11d	0.108339526
124	0xbe5bc952	-0.21463516
125	0xbd4a4348	-0.04938057
126	0x3da51fb8	0.080626905
127	0x3de584b8	0.11206955
128	0xbd3d1702	-0.04616452
129	0x3e05650b	0.13026826
130	0xbe810ea4	-0.25206482
131	0xbe6796b7	-0.22616087
132	0x3cd6e414	0.026231803
133	0x3e9a5db5	0.30149618
134	0xbe0abe92	-0.1354926
135	0xbe8d60ba	-0.2761286
136	0x3db5e23d	0.08881042
137	0x3e956283	0.2917672
138	0xbe5a8157	-0.21338402
139	0xbe77f8f5	-0.24216063
140	0x3e4d7883	0.20065503
141	0x3eb6bb91	0.35689977
142	0x3e6b9be7	0.23008691
143	0x3e5ed8cb	0.21762387
144	0x3e71f310	0.23627877
145	0xbcc8aeec	-0.024497472
146	0x3e74994e	0.23886606
147	0x3e078812	0.132355
148	0xbd2b7a2e	-0.041864567
149	0xbe8fb65f	-0.28068826
150	0x3e871a64	0.26387322
151	0xbc2b7a17	-0.01046612
152	0xbd8d5520	-0.06901002
153	0x3e9566f0	0.29180098
154	0x3e9853da	0.29751474
155	0xbe7f11cc	-0.24909133
156	0x3d19cac6	0.037546895
157	0x3e8538fc	0.26020038
158	0xbe5a3791	-0.2131026
159	0x3e40cf39	0.18829049
160	0x3e864b7d	0.26229468
161	0xbe98e250	-0.29860163
162	0xbe84e05b	-0.2595242
163	0x3c089cb8	0.008338146
164	0xbe98bc4d	-0.29831162
165	0x3b49b41c	0.003077752
166	0x3e99561d	0.29948512
167	0x3e8d362d	0.27580395
168	0x3de4385c	0.11143562
169	0x3e2c480e	0.16824362
170	0xbdbb4eb4	-0.09145871
171	0xbda37b20	-0.079824686
172	0xbe449296	-0.19196543
173	0x3e248025	0.16064508
174	0xbd8539e2	-0.06505181
175	0x3e84a7b1	0.25909188
176	0xbcca92b1	-0.024728151
177	0xbea6a05e	-0.32544225
178	0x3dc42786	0.09577851
179	0xbd86789f	-0.065659754
180	0x3e76af74	0.24090368
181	0x3d6095ba	0.05483029
182	0xbd3fec04	-0.04685594
183	0x3e335cd2	0.17515877
184	0xbe3970dd	-0.1810946
185	0xbe6e3626	-0.23262843
186	0x3e92710d	0.28601876
187	0xbd80fce6	-0.062982365
188	0x3ec93101	0.392952
189	0xbe37d206	-0.17951211
190	0x3dbf3e6d	0.09338079
191	0xbe89340e	-0.26797527
192	0x3e1e7387	0.15473758
193	0x3d76aa47	0.060220983
194	0xbe85ce6c	-0.2613405
195	0xbe88e039	-0.26733568
196	0x3e216669	0.15761723
197	0xbec9908e	-0.393681
198	0xbe48ba5e	-0.19602343
199	0xbe9828ce	-0.29718632
200	0xbe8c76ca	-0.2743438
201	0xbcc15dab	-0.023604235
202	0xbe8367d6	-0.25665158
203	0xbe8f6852	-0.28009278
204	0xbe5153e0	-0.20442152
205	0x3ea8461e	0.32865995
206	0xbebccff0	-0.36877394
207	0xbe7519dc	-0.23935646
208	0x3d6c8b0b	0.05774979
209	0xbe822098	-0.25415492
210	0x3d0d8a92	0.03455598
211	0xbe56c3ed	-0.20973177
212	0xbc3faf21	-0.011699469
213	0x3e8ebadb	0.27876934
214	0xbe747261	-0.23871757
215	0xbe26a214	-0.16272765
216	0x3e4d73a7	0.20063649
217	0x3e97a8d0	0.2962098
218	0xbdb95379	-0.09049124
219	0x3dbe3966	0.09288292
220	0xb930beac	-0.00016855699
221	0x3e0d5574	0.13802129
222	0xbd0df0df	-0.03465354
223	0xbdb5cf62	-0.08877446
224	0x3cd0b7cb	0.025478264
225	0xbe4d8cfc	-0.20073313
226	0xbd1b0229	-0.037843857
227	0xbebcb2f5	-0.36855283
228	0x3dcdd98c	0.100512594
229	0xbe8385ff	-0.25688168
230	0x3e5890d9	0.21149005
231	0xbdfd9364	-0.12381628
232	0xbe48dd6c	-0.19615716
233	0x3ed6991d	0.4191369
234	0x3e0607bf	0.13088892
235	0xbe16c3a3	-0.14723067
236	0x3e2707c1	0.16311552
237	0xbe5ba1e5	-0.21448477
238	0x3ea43755	0.32073465
239	0x3e7ee2c3	0.2489119
240	0xbe39c22e	-0.1814048
241	0xbdc96d6a	-0.09835322
242	0xbe0e2bec	-0.13883942
243	0xbe3c2f70	-0.18377471
244	0xbe81d4d4	-0.25357687
245	0x3da1b7f2	0.07896413
246	0xbe3f115a	-0.18658963
247	0x3cb7821d	0.02240091
248	0x3e4dbb68	0.20091021
249	0x3da74eae	0.08169304
250	0xbec79dc9	-0.38987568
251	0xbda0ab29	-0.07845146
252	0x3e945797	0.28973076
253	0x3dfc8f2d	0.12331996
254	0xbe2e24a5	-0.17006166
255	0xbe1ad054	-0.15118533

static_proj.0.bias f4 [128]
0	0xbea2bb1b	-0.31783375
1	0x3ea77714	0.32708037
2	0xbe27bc8a	-0.16380516
3	0x3dc4df46	0.096128985
4	0x3d6aa353	0.057284664
5	0xbe941cc8	-0.28928208
6	0x3df49741	0.11942912
7	0xbeacca8e	-0.33748287
8	0x3e818e01	0.25303653
9	0xbdac3200	-0.08407974
10	0x3e4c107a	0.1992816
11	0xbe89223b	-0.26783928
12	0x3e6e1fcc	0.23254317
13	0xbeab6fa4	-0.33483613
14	0xbe89914b	-0.26868662
15	0x3e87e489	0.26541546
16	0xbe94d288	-0.29066873
17	0xbe833487	-0.25626013
18	0xbe8c4075	-0.27392927
19	0xbe2a8e43	-0.16655831
20	0x3ecd86cb	0.401419
21	0xbcceaf72	-0.025230143
22	0xbcd9672e	-0.026538458
23	0x3e9feb52	0.31234223
24	0x3c1ee041	0.009697021
25	0x3eb50f0d	0.35363045
26	0x3dd311a4	0.10306099
27	0x3ea17d6d	0.31541005
28	0xbe3b1418	-0.18269384
29	0x3dc7c92e	0.09755169
30	0x3ebb3945	0.3656713
31	0x3e94707d	0.28992072
32	0xbe2335b4	-0.15938455
33	0x3bb828e8	0.005620111
34	0xbe85ec82	-0.26157004
35	0xbe955f10	-0.2917409
36	0x3de376d0	0.11106646
37	0xbe3f0090	-0.18652558
38	0xbe9428e5	-0.2893745
39	0x3deeacde	0.116540655
40	0x3da16e04	0.07882312
41	0x3e89c99b	0.26911625
42	0x3e845e7e	0.25853342
43	0xbcd6206c	-0.026138507
44	0x3de39c8a	0.11113842
45	0xbe6a0f5d	-0.22857423
46	0xbdbcba2f	-0.09215199
47	0x3e080e37	0.13286673
48	0x3e8b44c3	0.272009
49	0x3a724af4	0.0009242736
50	0xbe337851	-0.17526366
51	0xbd3031ff	-0.04301643
52	0x3e99b7b1	0.30022958
53	0x3e436dd3	0.19084863
54	0xbd8e385b	-0.06944343
55	0x3e83a4bd	0.25711623
56	0xbd4344d3	-0.047673058
57	0xbe59fb7e	-0.21287343
58	0xbdd0b935	-0.101915754
59	0x3e61a56f	0.22035764
60	0xbd362897	-0.044472303
61	0x3ea3ce3e	0.31993288
62	0x3e8f7672	0.28020054
63	0x3e609029	0.21929993
64	0x3eb5c605	0.3550264
65	0xbe5d7c71	-0.21629502
66	0x3de3ed08	0.111291945
67	0xbe6741fc	-0.22583765
68	0xbdeb64e2	-0.11493851
69	0x3e20f7fa	0.15719596
70	0x3e98bca2	0.29831415
71	0xbc682471	-0.014168845
72	0x3e28883c	0.1645822
73	0x3ce8059c	0.028322987
74	0xbe0dea4f	-0.13858913
75	0x3e39d9e0	0.18149519
76	0xbe75bae1	-0.2399707
77	0x3e2f80a6	0.17138919
78	0xbdcc4262	-0.09973599
79	0x3da87821	0.08226038
80	0x3e605411	0.21907069
81	0x3e6f675e	0.23379275
82	0xbe1fb8b3	-0.15597801
83	0x3da78543	0.081797145
84	0x3dceae4c	0.10091838
85	0x3de8617d	0.113467194
86	0xbd239651	-0.039938275
87	0x3d39ecb5	0.045391757
88	0x3e7f9714	0.24959975
89	0xbdcbd5c2	-0.099528804
90	0xbc367840	-0.011137068
91	0xbe340771	-0.17580964
92	0xbe1a95d0	-0.15096211
93	0xbe5c6e08	-0.21526349
94	0x3e7fb627	0.2497183
95	0x3e4c60ae	0.19958755
96	0x3e1845e2	0.14870408
97	0x3e142393	0.14466695
98	0xbdfc95a9	-0.12333233
99	0x3ccd6254	0.0250713
100	0x3d3eefc4	0.046615377
101	0x3db021c9	0.08600194
102	0xbeb477a1	-0.3524752
103	0x3e930ec5	0.28722206
104	0x3e265cf4	0.16246396
105	0x3e610ea4	0.21978241
106	0xbe08702e	-0.13324043
107	0x3e23897c	0.15970415
108	0x3d199b14	0.03750141
109	0x3e12abbc	0.14323324
110	0x3e5edf3b	0.21764843
111	0xbe5ac090	-0.2136252
112	0xbe2cdcdb	-0.16881125
113	0xbd4f661b	-0.050634485
114	0xbdfb807a	-0.12280364
115	0xbd85b5a5	-0.065287866
116	0xbde517bd	-0.11186168
117	0x3dd2b36a	0.10288127
118	0xbe1270e3	-0.14300875
119	0xbe8cf403	-0.27529916
120	0x3e665d20	0.22496462
121	0xbe079bdc	-0.1324305
122	0xbdfb5b52	-0.12273277
123	0xbea50fe5	-0.3223869
124	0x3d357248	0.04429844
125	0xbe325273	-0.17414264
126	0xbe9f3fbe	-0.3110332
127	0xbe51bccb	-0.20482175
